…
I1105 00:37:55.418285 2106102528 net.cpp:275] The NetState phase (0) differed from the phase (1) specified by a rule in layer cifar
I1105 00:37:55.418671 2106102528 net.cpp:275] The NetState phase (0) differed from the phase (1) specified by a rule in layer accuracy
I1105 00:37:55.418686 2106102528 net.cpp:39] Initializing net from parameters:
name: "CIFAR10_quick"
layers {
  top: "data"
  top: "label"
  name: "cifar"
  type: DATA
  data_param {
    source: "examples/cifar10/cifar10_train_leveldb"
    batch_size: 100
  }
  include {
    phase: TRAIN
  }
  transform_param {
    mean_file: "examples/cifar10/mean.binaryproto"
  }
}
layers {
  bottom: "data"
  top: "conv1"
  name: "conv1"
  type: CONVOLUTION
  blobs_lr: 1
  blobs_lr: 2
  convolution_param {
    num_output: 32
    pad: 2
    kernel_size: 5
    stride: 1
    weight_filler {
      type: "gaussian"
      std: 0.0001
    }
    bias_filler {
      type: "constant"
    }
  }
}
layers {
  bottom: "conv1"
  top: "pool1"
  name: "pool1"
  type: POOLING
  pooling_param {
    pool: MAX
    kernel_size: 3
    stride: 2
  }
}
layers {
  bottom: "pool1"
  top: "pool1"
  name: "relu1"
  type: RELU
}
layers {
  bottom: "pool1"
  top: "conv2"
  name: "conv2"
  type: CONVOLUTION
  blobs_lr: 1
  blobs_lr: 2
  convolution_param {
    num_output: 32
    pad: 2
    kernel_size: 5
    stride: 1
    weight_filler {
      type: "gaussian"
      std: 0.01
    }
    bias_filler {
      type: "constant"
    }
  }
}
layers {
  bottom: "conv2"
  top: "conv2"
  name: "relu2"
  type: RELU
}
layers {
  bottom: "conv2"
  top: "pool2"
  name: "pool2"
  type: POOLING
  pooling_param {
    pool: AVE
    kernel_size: 3
    stride: 2
  }
}
layers {
  bottom: "pool2"
  top: "conv3"
  name: "conv3"
  type: CONVOLUTION
  blobs_lr: 1
  blobs_lr: 2
  convolution_param {
    num_output: 64
    pad: 2
    kernel_size: 5
    stride: 1
    weight_filler {
      type: "gaussian"
      std: 0.01
    }
    bias_filler {
      type: "constant"
    }
  }
}
layers {
  bottom: "conv3"
  top: "conv3"
  name: "relu3"
  type: RELU
}
layers {
  bottom: "conv3"
  top: "pool3"
  name: "pool3"
  type: POOLING
  pooling_param {
    pool: AVE
    kernel_size: 3
    stride: 2
  }
}
layers {
  bottom: "pool3"
  top: "ip1"
  name: "ip1"
  type: INNER_PRODUCT
  blobs_lr: 1
  blobs_lr: 2
  inner_product_param {
    num_output: 64
    weight_filler {
      type: "gaussian"
      std: 0.1
    }
    bias_filler {
      type: "constant"
    }
  }
}
layers {
  bottom: "ip1"
  top: "ip2"
  name: "ip2"
  type: INNER_PRODUCT
  blobs_lr: 1
  blobs_lr: 2
  inner_product_param {
    num_output: 10
    weight_filler {
      type: "gaussian"
      std: 0.1
    }
    bias_filler {
      type: "constant"
    }
  }
}
layers {
  bottom: "ip2"
  bottom: "label"
  top: "loss"
  name: "loss"
  type: SOFTMAX_LOSS
}
state {
  phase: TRAIN
}
I1105 00:37:55.419668 2106102528 net.cpp:67] Creating Layer cifar
I1105 00:37:55.419692 2106102528 net.cpp:356] cifar -> data
I1105 00:37:55.419728 2106102528 net.cpp:356] cifar -> label
I1105 00:37:55.419749 2106102528 net.cpp:96] Setting up cifar
I1105 00:37:55.419798 2106102528 data_layer.cpp:45] Opening leveldb examples/cifar10/cifar10_train_leveldb
I1105 00:37:55.424901 2106102528 data_layer.cpp:128] output data size: 100,3,32,32
I1105 00:37:55.424939 2106102528 base_data_layer.cpp:36] Loading mean file fromexamples/cifar10/mean.binaryproto
I1105 00:37:55.427078 2106102528 net.cpp:103] Top shape: 100 3 32 32 (307200)
I1105 00:37:55.427165 2106102528 net.cpp:103] Top shape: 100 1 1 1 (100)
I1105 00:37:55.427245 2106102528 net.cpp:67] Creating Layer conv1
I1105 00:37:55.427259 2106102528 net.cpp:394] conv1 <- data
I1105 00:37:55.427281 2106102528 net.cpp:356] conv1 -> conv1
I1105 00:37:55.427302 2106102528 net.cpp:96] Setting up conv1
I1105 00:37:55.434801 2106102528 net.cpp:103] Top shape: 100 32 32 32 (3276800)
I1105 00:37:55.434885 2106102528 net.cpp:67] Creating Layer pool1
I1105 00:37:55.434898 2106102528 net.cpp:394] pool1 <- conv1
I1105 00:37:55.434933 2106102528 net.cpp:356] pool1 -> pool1
I1105 00:37:55.434952 2106102528 net.cpp:96] Setting up pool1
I1105 00:37:55.434978 2106102528 net.cpp:103] Top shape: 100 32 16 16 (819200)
I1105 00:37:55.434990 2106102528 net.cpp:67] Creating Layer relu1
I1105 00:37:55.434999 2106102528 net.cpp:394] relu1 <- pool1
I1105 00:37:55.435011 2106102528 net.cpp:345] relu1 -> pool1 (in-place)
I1105 00:37:55.435024 2106102528 net.cpp:96] Setting up relu1
I1105 00:37:55.435032 2106102528 net.cpp:103] Top shape: 100 32 16 16 (819200)
I1105 00:37:55.435051 2106102528 net.cpp:67] Creating Layer conv2
I1105 00:37:55.435060 2106102528 net.cpp:394] conv2 <- pool1
I1105 00:37:55.435072 2106102528 net.cpp:356] conv2 -> conv2
I1105 00:37:55.435119 2106102528 net.cpp:96] Setting up conv2
I1105 00:37:55.435914 2106102528 net.cpp:103] Top shape: 100 32 16 16 (819200)
I1105 00:37:55.435940 2106102528 net.cpp:67] Creating Layer relu2
I1105 00:37:55.435952 2106102528 net.cpp:394] relu2 <- conv2
I1105 00:37:55.435966 2106102528 net.cpp:345] relu2 -> conv2 (in-place)
I1105 00:37:55.435981 2106102528 net.cpp:96] Setting up relu2
I1105 00:37:55.435991 2106102528 net.cpp:103] Top shape: 100 32 16 16 (819200)
I1105 00:37:55.436008 2106102528 net.cpp:67] Creating Layer pool2
I1105 00:37:55.436019 2106102528 net.cpp:394] pool2 <- conv2
I1105 00:37:55.436033 2106102528 net.cpp:356] pool2 -> pool2
I1105 00:37:55.436048 2106102528 net.cpp:96] Setting up pool2
I1105 00:37:55.436059 2106102528 net.cpp:103] Top shape: 100 32 8 8 (204800)
I1105 00:37:55.436074 2106102528 net.cpp:67] Creating Layer conv3
I1105 00:37:55.436084 2106102528 net.cpp:394] conv3 <- pool2
I1105 00:37:55.436115 2106102528 net.cpp:356] conv3 -> conv3
I1105 00:37:55.436132 2106102528 net.cpp:96] Setting up conv3
I1105 00:37:55.437974 2106102528 net.cpp:103] Top shape: 100 64 8 8 (409600)
I1105 00:37:55.438046 2106102528 net.cpp:67] Creating Layer relu3
I1105 00:37:55.438060 2106102528 net.cpp:394] relu3 <- conv3
I1105 00:37:55.438076 2106102528 net.cpp:345] relu3 -> conv3 (in-place)
I1105 00:37:55.438158 2106102528 net.cpp:96] Setting up relu3
I1105 00:37:55.438174 2106102528 net.cpp:103] Top shape: 100 64 8 8 (409600)
I1105 00:37:55.438195 2106102528 net.cpp:67] Creating Layer pool3
I1105 00:37:55.438206 2106102528 net.cpp:394] pool3 <- conv3
I1105 00:37:55.438218 2106102528 net.cpp:356] pool3 -> pool3
I1105 00:37:55.438233 2106102528 net.cpp:96] Setting up pool3
I1105 00:37:55.438244 2106102528 net.cpp:103] Top shape: 100 64 4 4 (102400)
I1105 00:37:55.438258 2106102528 net.cpp:67] Creating Layer ip1
I1105 00:37:55.438268 2106102528 net.cpp:394] ip1 <- pool3
I1105 00:37:55.438282 2106102528 net.cpp:356] ip1 -> ip1
I1105 00:37:55.438298 2106102528 net.cpp:96] Setting up ip1
I1105 00:37:55.440835 2106102528 net.cpp:103] Top shape: 100 64 1 1 (6400)
I1105 00:37:55.440886 2106102528 net.cpp:67] Creating Layer ip2
I1105 00:37:55.440901 2106102528 net.cpp:394] ip2 <- ip1
I1105 00:37:55.440918 2106102528 net.cpp:356] ip2 -> ip2
I1105 00:37:55.440954 2106102528 net.cpp:96] Setting up ip2
I1105 00:37:55.441000 2106102528 net.cpp:103] Top shape: 100 10 1 1 (1000)
I1105 00:37:55.441030 2106102528 net.cpp:67] Creating Layer loss
I1105 00:37:55.441041 2106102528 net.cpp:394] loss <- ip2
I1105 00:37:55.441051 2106102528 net.cpp:394] loss <- label
I1105 00:37:55.441067 2106102528 net.cpp:356] loss -> loss
I1105 00:37:55.441082 2106102528 net.cpp:96] Setting up loss
I1105 00:37:55.441104 2106102528 net.cpp:103] Top shape: 1 1 1 1 (1)
I1105 00:37:55.441114 2106102528 net.cpp:109]     with loss weight 1
I1105 00:37:55.441642 2106102528 net.cpp:170] loss needs backward computation.
I1105 00:37:55.441797 2106102528 net.cpp:170] ip2 needs backward computation.
I1105 00:37:55.441824 2106102528 net.cpp:170] ip1 needs backward computation.
I1105 00:37:55.441839 2106102528 net.cpp:170] pool3 needs backward computation.
I1105 00:37:55.441848 2106102528 net.cpp:170] relu3 needs backward computation.
…
I1105 00:37:55.443686 2106102528 solver.cpp:151] Creating test net (#0) specified by net file: examples/cifar10/cifar10_quick_train_test.prototxt
I1105 00:37:55.443864 2106102528 net.cpp:275] The NetState phase (1) differed from the phase (0) specified by a rule in layer cifar
I1105 00:37:55.443902 2106102528 net.cpp:39] Initializing net from parameters:
name: "CIFAR10_quick"
layers {
  top: "data"
  top: "label"
  name: "cifar"
  type: DATA
  data_param {
    source: "examples/cifar10/cifar10_test_leveldb"
    batch_size: 100
  }
  include {
    phase: TEST
  }
  transform_param {
    mean_file: "examples/cifar10/mean.binaryproto"
  }
}
layers {
  bottom: "data"
  top: "conv1"
  name: "conv1"
  type: CONVOLUTION
  blobs_lr: 1
  blobs_lr: 2
  convolution_param {
    num_output: 32
    pad: 2
    kernel_size: 5
    stride: 1
    weight_filler {
      type: "gaussian"
      std: 0.0001
    }
    bias_filler {
      type: "constant"
    }
  }
}
layers {
  bottom: "conv1"
  top: "pool1"
  name: "pool1"
  type: POOLING
  pooling_param {
    pool: MAX
    kernel_size: 3
    stride: 2
  }
}
layers {
  bottom: "pool1"
  top: "pool1"
  name: "relu1"
  type: RELU
}
layers {
  bottom: "pool1"
  top: "conv2"
  name: "conv2"
  type: CONVOLUTION
  blobs_lr: 1
  blobs_lr: 2
  convolution_param {
    num_output: 32
    pad: 2
    kernel_size: 5
    stride: 1
    weight_filler {
      type: "gaussian"
      std: 0.01
    }
    bias_filler {
      type: "constant"
    }
  }
}
layers {
  bottom: "conv2"
  top: "conv2"
  name: "relu2"
  type: RELU
}
layers {
  bottom: "conv2"
  top: "pool2"
  name: "pool2"
  type: POOLING
  pooling_param {
    pool: AVE
    kernel_size: 3
    stride: 2
  }
}
layers {
  bottom: "pool2"
  top: "conv3"
  name: "conv3"
  type: CONVOLUTION
  blobs_lr: 1
  blobs_lr: 2
  convolution_param {
    num_output: 64
    pad: 2
    kernel_size: 5
    stride: 1
    weight_filler {
      type: "gaussian"
      std: 0.01
    }
    bias_filler {
      type: "constant"
    }
  }
}
layers {
  bottom: "conv3"
  top: "conv3"
  name: "relu3"
  type: RELU
}
layers {
  bottom: "conv3"
  top: "pool3"
  name: "pool3"
  type: POOLING
  pooling_param {
    pool: AVE
    kernel_size: 3
    stride: 2
  }
}
layers {
  bottom: "pool3"
  top: "ip1"
  name: "ip1"
  type: INNER_PRODUCT
  blobs_lr: 1
  blobs_lr: 2
  inner_product_param {
    num_output: 64
    weight_filler {
      type: "gaussian"
      std: 0.1
    }
    bias_filler {
      type: "constant"
    }
  }
}
layers {
  bottom: "ip1"
  top: "ip2"
  name: "ip2"
  type: INNER_PRODUCT
  blobs_lr: 1
  blobs_lr: 2
  inner_product_param {
    num_output: 10
    weight_filler {
      type: "gaussian"
      std: 0.1
    }
    bias_filler {
      type: "constant"
    }
  }
}
layers {
  bottom: "ip2"
  bottom: "label"
  top: "accuracy"
  name: "accuracy"
  type: ACCURACY
  include {
    phase: TEST
  }
}
layers {
  bottom: "ip2"
  bottom: "label"
  top: "loss"
  name: "loss"
  type: SOFTMAX_LOSS
}
state {
  phase: TEST
}
I1105 00:37:55.445633 2106102528 net.cpp:67] Creating Layer cifar
I1105 00:37:55.445654 2106102528 net.cpp:356] cifar -> data
I1105 00:37:55.445680 2106102528 net.cpp:356] cifar -> label
I1105 00:37:55.445843 2106102528 net.cpp:96] Setting up cifar
I1105 00:37:55.445860 2106102528 data_layer.cpp:45] Opening leveldb examples/cifar10/cifar10_test_leveldb
I1105 00:37:55.559833 2106102528 data_layer.cpp:128] output data size: 100,3,32,32
I1105 00:37:55.559862 2106102528 base_data_layer.cpp:36] Loading mean file fromexamples/cifar10/mean.binaryproto
I1105 00:37:55.560493 2106102528 net.cpp:103] Top shape: 100 3 32 32 (307200)
I1105 00:37:55.560506 2106102528 net.cpp:103] Top shape: 100 1 1 1 (100)
I1105 00:37:55.560520 2106102528 net.cpp:67] Creating Layer label_cifar_1_split
I1105 00:37:55.560526 2106102528 net.cpp:394] label_cifar_1_split <- label
I1105 00:37:55.560535 2106102528 net.cpp:356] label_cifar_1_split -> label_cifar_1_split_0
I1105 00:37:55.560546 2106102528 net.cpp:356] label_cifar_1_split -> label_cifar_1_split_1
I1105 00:37:55.560554 2106102528 net.cpp:96] Setting up label_cifar_1_split
I1105 00:37:55.560561 2106102528 net.cpp:103] Top shape: 100 1 1 1 (100)
I1105 00:37:55.560566 2106102528 net.cpp:103] Top shape: 100 1 1 1 (100)
I1105 00:37:55.560580 2106102528 net.cpp:67] Creating Layer conv1
I1105 00:37:55.560585 2106102528 net.cpp:394] conv1 <- data
I1105 00:37:55.560592 2106102528 net.cpp:356] conv1 -> conv1
I1105 00:37:55.560601 2106102528 net.cpp:96] Setting up conv1
I1105 00:37:55.560689 2106102528 net.cpp:103] Top shape: 100 32 32 32 (3276800)
I1105 00:37:55.560722 2106102528 net.cpp:67] Creating Layer pool1
I1105 00:37:55.560735 2106102528 net.cpp:394] pool1 <- conv1
I1105 00:37:55.560744 2106102528 net.cpp:356] pool1 -> pool1
I1105 00:37:55.560752 2106102528 net.cpp:96] Setting up pool1
I1105 00:37:55.560760 2106102528 net.cpp:103] Top shape: 100 32 16 16 (819200)
I1105 00:37:55.560768 2106102528 net.cpp:67] Creating Layer relu1
I1105 00:37:55.560773 2106102528 net.cpp:394] relu1 <- pool1
I1105 00:37:55.560781 2106102528 net.cpp:345] relu1 -> pool1 (in-place)
I1105 00:37:55.560787 2106102528 net.cpp:96] Setting up relu1
I1105 00:37:55.560792 2106102528 net.cpp:103] Top shape: 100 32 16 16 (819200)
I1105 00:37:55.560801 2106102528 net.cpp:67] Creating Layer conv2
I1105 00:37:55.560806 2106102528 net.cpp:394] conv2 <- pool1
I1105 00:37:55.560817 2106102528 net.cpp:356] conv2 -> conv2
I1105 00:37:55.560827 2106102528 net.cpp:96] Setting up conv2
I1105 00:37:55.561426 2106102528 net.cpp:103] Top shape: 100 32 16 16 (819200)
I1105 00:37:55.561441 2106102528 net.cpp:67] Creating Layer relu2
I1105 00:37:55.561447 2106102528 net.cpp:394] relu2 <- conv2
I1105 00:37:55.561455 2106102528 net.cpp:345] relu2 -> conv2 (in-place)
I1105 00:37:55.561460 2106102528 net.cpp:96] Setting up relu2
I1105 00:37:55.561466 2106102528 net.cpp:103] Top shape: 100 32 16 16 (819200)
I1105 00:37:55.561472 2106102528 net.cpp:67] Creating Layer pool2
I1105 00:37:55.561477 2106102528 net.cpp:394] pool2 <- conv2
I1105 00:37:55.561485 2106102528 net.cpp:356] pool2 -> pool2
I1105 00:37:55.561491 2106102528 net.cpp:96] Setting up pool2
I1105 00:37:55.561497 2106102528 net.cpp:103] Top shape: 100 32 8 8 (204800)
I1105 00:37:55.561508 2106102528 net.cpp:67] Creating Layer conv3
I1105 00:37:55.561514 2106102528 net.cpp:394] conv3 <- pool2
I1105 00:37:55.561522 2106102528 net.cpp:356] conv3 -> conv3
I1105 00:37:55.561530 2106102528 net.cpp:96] Setting up conv3
I1105 00:37:55.562803 2106102528 net.cpp:103] Top shape: 100 64 8 8 (409600)
I1105 00:37:55.562820 2106102528 net.cpp:67] Creating Layer relu3
I1105 00:37:55.562827 2106102528 net.cpp:394] relu3 <- conv3
I1105 00:37:55.562836 2106102528 net.cpp:345] relu3 -> conv3 (in-place)
I1105 00:37:55.562844 2106102528 net.cpp:96] Setting up relu3
I1105 00:37:55.562880 2106102528 net.cpp:103] Top shape: 100 64 8 8 (409600)
I1105 00:37:55.562887 2106102528 net.cpp:67] Creating Layer pool3
I1105 00:37:55.562892 2106102528 net.cpp:394] pool3 <- conv3
I1105 00:37:55.562899 2106102528 net.cpp:356] pool3 -> pool3
I1105 00:37:55.562907 2106102528 net.cpp:96] Setting up pool3
I1105 00:37:55.562913 2106102528 net.cpp:103] Top shape: 100 64 4 4 (102400)
I1105 00:37:55.562921 2106102528 net.cpp:67] Creating Layer ip1
I1105 00:37:55.562927 2106102528 net.cpp:394] ip1 <- pool3
I1105 00:37:55.562933 2106102528 net.cpp:356] ip1 -> ip1
I1105 00:37:55.562942 2106102528 net.cpp:96] Setting up ip1
I1105 00:37:55.564554 2106102528 net.cpp:103] Top shape: 100 64 1 1 (6400)
I1105 00:37:55.564574 2106102528 net.cpp:67] Creating Layer ip2
I1105 00:37:55.564580 2106102528 net.cpp:394] ip2 <- ip1
I1105 00:37:55.564589 2106102528 net.cpp:356] ip2 -> ip2
I1105 00:37:55.564596 2106102528 net.cpp:96] Setting up ip2
I1105 00:37:55.564620 2106102528 net.cpp:103] Top shape: 100 10 1 1 (1000)
I1105 00:37:55.564630 2106102528 net.cpp:67] Creating Layer ip2_ip2_0_split
I1105 00:37:55.564636 2106102528 net.cpp:394] ip2_ip2_0_split <- ip2
I1105 00:37:55.564642 2106102528 net.cpp:356] ip2_ip2_0_split -> ip2_ip2_0_split_0
I1105 00:37:55.564651 2106102528 net.cpp:356] ip2_ip2_0_split -> ip2_ip2_0_split_1
I1105 00:37:55.564658 2106102528 net.cpp:96] Setting up ip2_ip2_0_split
I1105 00:37:55.564664 2106102528 net.cpp:103] Top shape: 100 10 1 1 (1000)
I1105 00:37:55.564671 2106102528 net.cpp:103] Top shape: 100 10 1 1 (1000)
I1105 00:37:55.564679 2106102528 net.cpp:67] Creating Layer accuracy
I1105 00:37:55.564685 2106102528 net.cpp:394] accuracy <- ip2_ip2_0_split_0
I1105 00:37:55.564692 2106102528 net.cpp:394] accuracy <- label_cifar_1_split_0
I1105 00:37:55.564698 2106102528 net.cpp:356] accuracy -> accuracy
I1105 00:37:55.564707 2106102528 net.cpp:96] Setting up accuracy
I1105 00:37:55.564713 2106102528 net.cpp:103] Top shape: 1 1 1 1 (1)
I1105 00:37:55.564720 2106102528 net.cpp:67] Creating Layer loss
I1105 00:37:55.564725 2106102528 net.cpp:394] loss <- ip2_ip2_0_split_1
I1105 00:37:55.564731 2106102528 net.cpp:394] loss <- label_cifar_1_split_1
I1105 00:37:55.564738 2106102528 net.cpp:356] loss -> loss
I1105 00:37:55.564745 2106102528 net.cpp:96] Setting up loss
I1105 00:37:55.564754 2106102528 net.cpp:103] Top shape: 1 1 1 1 (1)
I1105 00:37:55.564759 2106102528 net.cpp:109]     with loss weight 1
I1105 00:37:55.564771 2106102528 net.cpp:170] loss needs backward computation.
I1105 00:37:55.564776 2106102528 net.cpp:172] accuracy does not need backward computation.
I1105 00:37:55.564781 2106102528 net.cpp:170] ip2_ip2_0_split needs backward computation.
I1105 00:37:55.564786 2106102528 net.cpp:170] ip2 needs backward computation.
…
